p1_navigation/bananas_solved.pth (torch_old, 797931 bytes, 6 tensors)

fcn1.weight f4 [592, 37]
0	0x3ba29b25	0.0049623423
1	0xbc94fe21	-0.018187584
2	0xbe39c90d	-0.18143101
3	0xbe9d76db	-0.30754742
4	0xbe1a45ad	-0.15065642
5	0x3db399bd	0.087695576
6	0xbe914511	-0.28373006
7	0x3db9109b	0.0903637
8	0x3d0add3d	0.033902396
9	0xbe2e0060	-0.1699233
10	0xbece77a8	-0.40325665
11	0x3d5e9345	0.054339666
12	0xbd6d2a57	-0.057901707
13	0xbeb9b375	-0.36269727
14	0xbe6bec44	-0.23039347
15	0x3ccfeddd	0.025381977
16	0xbd85d1cb	-0.065341555
17	0xbd079ef7	-0.033110585
18	0xbd9b19a4	-0.0757325
19	0xbe5f10af	-0.21783708
20	0xbde25658	-0.11051625
21	0x3d9e3e5f	0.0772674
22	0xbdc4b24c	-0.0960432
23	0x3e82088f	0.25397155
24	0xbee6cce4	-0.45078194
25	0xbcde84de	-0.027162965
26	0x3dd3ef07	0.10348325
27	0xbe6be844	-0.23037821
28	0xbcdb631a	-0.026780654
29	0xbd91810a	-0.071046904
30	0xbc39afe5	-0.01133344
31	0xbd35cab7	-0.044382777
32	0xbd424c9f	-0.047436353
33	0xbea2150b	-0.3165668
34	0xbe62d1c4	-0.22150332
35	0xbe87f287	-0.2655222
36	0x3c3beaa6	0.011469519
37	0x3e194500	0.14967728
38	0xbca74d13	-0.020422494
39	0xbd6646df	-0.05621993
40	0x3da98cc4	0.08278802
41	0xbf15be57	-0.5849356
42	0xbdb3a386	-0.08771424
43	0xbe45029b	-0.19239275
44	0xbda62e7a	-0.081143335
45	0xbc50c70f	-0.012742772
46	0xbdd66fc2	-0.10470535
47	0x3e5dbcb4	0.21654016
48	0xbe20e5de	-0.15712687
49	0xbe37608c	-0.17907923
50	0xbdc6c401	-0.097053535
51	0x3e91bc12	0.284638
52	0xbda733b9	-0.08164162
53	0x3e13939c	0.14411777
54	0xbd88d802	-0.06681825
55	0x3e1f8146	0.15576658
56	0xbec97316	-0.39345616
57	0xbe64b50f	-0.22334693
58	0xbde06955	-0.109575905
59	0xbcc45beb	-0.023969611
60	0xbc4b292b	-0.012399952
61	0x3c255f55	0.01009353
62	0xbe9569eb	-0.29182371
63	0x3d57c0d7	0.05267414
64	0x3d925c1a	0.07146473
65	0x3e12f26e	0.14350292
66	0xbdb1fe56	-0.08691089
67	0xbddfbe55	-0.10924975
68	0x3e3eb2c6	0.18622884
69	0x3e0debf7	0.13859545
70	0xbea2c73e	-0.31792635
71	0xbe837d49	-0.25681522
72	0x3d6b7003	0.05747987
73	0x3c4e28ec	0.012582999
74	0x3e202c09	0.15641798
75	0x3e5115e8	0.20418513
76	0xbdfdb608	-0.12388235
77	0x3cfeed4c	0.031119011
78	0xbd941957	-0.07231396
79	0xbe8cc866	-0.27496642
80	0xbdcee6ff	-0.10102653
81	0x3e9bcd76	0.30430192
82	0x3cb5cd9e	0.022192772
83	0xbd83e922	-0.06440951
84	0x3dbfd989	0.093676634
85	0xbe396fc2	-0.18109038
86	0xbc827f1b	-0.01592975
87	0xbdbdd591	-0.0926925
88	0x3effb316	0.4994132
89	0xbccc8f60	-0.02497071
90	0xbe742eb1	-0.23845936
91	0x3e868bd4	0.26278555
92	0x3dcda546	0.10041289
93	0xbd67d676	-0.05660101
94	0xbea67994	-0.32514632
95	0xbd794adf	-0.06086242
96	0x3dd84d5d	0.10561631
97	0x3d2d3ed8	0.04229626
98	0xbdadece0	-0.08492446
99	0xbe22e8fa	-0.15909186
100	0x3e5ff66d	0.21871348
101	0x3dca6213	0.098819874
102	0xbdd326ce	-0.10310136
103	0xbcef4fdb	-0.029212883
104	0xbe1f0336	-0.15528569
105	0xbe101119	-0.14069022
106	0xbd7fa059	-0.06240878
107	0xbdd4623e	-0.10370301
108	0x3e5a2cad	0.21306105
109	0x3d31e022	0.04342664
110	0x3bc3c805	0.005974772
111	0x3e59d7fc	0.21273798
112	0xbdfa8519	-0.122324176
113	0x3df00427	0.11719542
114	0x3d47d694	0.048788622
115	0xbf06dfb9	-0.52685124
116	0xbd3438ac	-0.04399936
117	0x3d854475	0.06507198
118	0x3d8285d6	0.063731834
119	0x3d80341b	0.06259938
120	0x3e4139c6	0.18869695
121	0x3db6fbde	0.089347586
122	0xbe55fda2	-0.20897534
123	0x3e0968ac	0.13418835
124	0xbe1eae43	-0.15496163
125	0xbd856289	-0.06512935
126	0x3dff0df8	0.12453836
127	0xbd88b912	-0.06675924
128	0xbe2f688d	-0.17129727
129	0xbe841c24	-0.2580272
130	0xbed0699f	-0.40705582
131	0x3ce2648e	0.027635839
132	0xbd4e1983	-0.0503173
133	0x3d27abf4	0.04093547
134	0x3dd36b29	0.103231736
135	0xbe093e13	-0.13402586
136	0xbd36c7d2	-0.044624157
137	0x3ba582e9	0.005051006
138	0x3ce742a8	0.028230026
139	0x3e9e6db3	0.3094307
140	0x3e8f84bf	0.28030965
141	0x3e080fd7	0.13287292
142	0x3ea545f6	0.32279938
143	0xbdd3ecb5	-0.10347883
144	0xbe148f73	-0.14507847
145	0xbd557e18	-0.052122205
146	0x3cbf737f	0.023370503
147	0xbb4131ff	-0.0029479263
148	0xbcf3e124	-0.029770441
149	0xbe17b6a5	-0.14815767
150	0xbe4bca79	-0.19901456
151	0xbddeac82	-0.10872747
152	0xbb26d6e0	-0.0025457665
153	0x3dc5fcc8	0.09667355
154	0x3eaefd0b	0.3417743
155	0xbf02d3f2	-0.5110465
156	0x3d611492	0.054951258
157	0xbf030c2c	-0.5119045
158	0xbddcd513	-0.10782828
159	0xbde94d71	-0.11391724
160	0x3c83143e	0.016000863
161	0x3ddc1afa	0.10747333
162	0xbe9b59ef	-0.3034205
163	0xbe26ab38	-0.16276252
164	0xbcce4fb2	-0.025184486
165	0x3c153117	0.009105942
166	0x3beafe2c	0.007171413
167	0x3d97276a	0.073805645
168	0xbe63adec	-0.22234315
169	0x3d7058df	0.058678504
170	0x3e6b00ff	0.22949599
171	0xbdd66ad7	-0.10469597
172	0x3e2f7861	0.17135765
173	0x3deb6a90	0.114949346
174	0xbf217a0d	-0.6307686
175	0x3dcc97c5	0.09989885
176	0xbd00c295	-0.031435568
177	0xbf5366c5	-0.8257869
178	0x3ddc8397	0.10767286
179	0xbda9406d	-0.08264241
180	0x3e30af7f	0.17254446
181	0xbda290bd	-0.07937763
182	0x3e44cf44	0.1921969
183	0x3d3786d5	0.04480632
184	0xbc354054	-0.0110627
185	0x3df82023	0.121155046
186	0xbd748d32	-0.059704967
187	0xbe384eb3	-0.17998771
188	0xbe82b6b0	-0.25530005
189	0xbc7e6417	-0.015526793
190	0x3e3a5583	0.18196683
191	0xbe57e304	-0.21082693
192	0xbe7a0ff5	-0.2442015
193	0xbe69eb75	-0.22843726
194	0xbf90b2ca	-1.1304562
195	0xbd1a7cd7	-0.037716713
196	0xbe015d2d	-0.126332
197	0x3c2c8083	0.010528686
198	0xbe292474	-0.16517812
199	0xbe29d980	-0.16586876
200	0xbc6a1ed0	-0.014289573
201	0xbc7f0a2f	-0.015566393
202	0xbdd8cffa	-0.105865434
203	0x3c3d154f	0.011540725
204	0xbdc1e19e	-0.09466861
205	0xbdf78038	-0.12085003
206	0xbeaec83e	-0.34137148
207	0x3e84c2ce	0.25929874
208	0x3e503fa5	0.20336778
209	0x3cb050cc	0.021522902
210	0xbe030162	-0.12793496
211	0xbd4d78ed	-0.050164152
212	0x3dedc3c4	0.11609605
213	0xbc5944d9	-0.0132610435
214	0xbe5a7631	-0.21334149
215	0xbc735de0	-0.0148539245
216	0xbed411b9	-0.4141977
217	0xbd4f3f75	-0.050597627
218	0x3e15cc2c	0.14628667
219	0xbdca5c59	-0.09880895
220	0x3d61ec3b	0.055156928
221	0x3d4f98b1	0.050682727
222	0xb9804310	-0.00024464028
223	0x3dcd5a6b	0.100270115
224	0xbd300587	-0.04297402
225	0x3e0e4a3a	0.13895503
226	0xbd1fa0cd	-0.03897171
227	0x3c17b447	0.00925929
228	0xbdb65c65	-0.089043416
229	0xbd3cb7b4	-0.04607363
230	0x3dd0a12e	0.101869926
231	0x3e865319	0.26235273
232	0x3de38cd9	0.11110849
233	0x3de47087	0.111542754
234	0x3dd858ee	0.10563837
235	0x3dcd4954	0.10023752
236	0x3de478eb	0.11155876
237	0xbd982290	-0.07428467
238	0xbcbd7458	-0.023126766
239	0x3dcc8292	0.09985842
240	0x3da3b8cb	0.07994231
241	0x3e135ecc	0.14391631
242	0xbb55426b	-0.003254081
243	0x3d9364b4	0.07196942
244	0x3d015630	0.031576335
245	0x3d0f692c	0.03501241
246	0x3dc92844	0.09822133
247	0xbcada888	-0.021198526
248	0xbd0b3fba	-0.03399632
249	0x3c0262a6	0.00795809
250	0xbc20f2f6	-0.009823551
251	0xbcc12680	-0.023577929
252	0x3eb3c301	0.35109714
253	0xbeeb74d5	-0.45987573
254	0xbf2a4a48	-0.66519594
255	0xbef0d1ac	-0.47034967

fcn1.bias f4 [592]
0	0xbcd75673	-0.02628634
1	0x3d833168	0.06405908
2	0xbe0e834b	-0.13917272
3	0x3def6238	0.116886556
4	0x3e28d786	0.16488466
5	0xbe5c9e29	-0.21544708
6	0x3c38327b	0.011242504
7	0x3d80906d	0.06277547
8	0x3d027eaf	0.031859096
9	0x3c9fcbe1	0.019506397
10	0xbe05e623	-0.13076071
11	0x3e0117dd	0.1260676
12	0xbd4346a3	-0.047674786
13	0xbe21eb0c	-0.1581232
14	0xbe1fe4e1	-0.15614654
15	0xbe6aee5a	-0.22942486
16	0xbe582b08	-0.21110165
17	0xbddbc527	-0.10730963
18	0xbd6c066f	-0.057623323
19	0xbdea8914	-0.11451927
20	0xbe3bb30f	-0.18330024
21	0xbdf296bb	-0.11845156
22	0x3def1c7c	0.11675355
23	0xbd3135f6	-0.04326435
24	0xbe1b8b27	-0.15189801
25	0x3d33a247	0.04385593
26	0x3d636cf4	0.055523828
27	0x3c9dda51	0.01926914
28	0xbdd7fce3	-0.10546281
29	0x3d9ef939	0.07762379
30	0x3da24180	0.079226494
31	0x3d989b94	0.07451549
32	0xbd4755ba	-0.04866574
33	0xbe11b701	-0.14229967
34	0xbe505586	-0.20345125
35	0x3d35674a	0.044287957
36	0xbdd22935	-0.10261766
37	0xbd4daac2	-0.050211675
38	0x3e4451e7	0.19171868
39	0x3d44333c	0.047900423
40	0xbe71b7fe	-0.23605344
41	0xbccb1ee2	-0.024795
42	0xbddd8280	-0.108159065
43	0xbd89a826	-0.06721525
44	0xbbd80c66	-0.006593275
45	0x3cdd87e9	0.027042346
46	0xbe8bc2d2	-0.27297074
47	0xbe2f28c5	-0.17105396
48	0xbc686344	-0.014183823
49	0x3d9369a2	0.07197882
50	0xbe205362	-0.15656808
51	0xbdd7fca1	-0.10546232
52	0xbe2d7cc2	-0.16942123
53	0xbde30cc1	-0.11086417
54	0xbe24b6da	-0.16085377
55	0xbe0947d8	-0.13406312
56	0xbda4a12b	-0.08038553
57	0x3d483ee2	0.048888095
58	0xbd7167e4	-0.05893697
59	0xbe3062e5	-0.17225225
60	0xbdfabaed	-0.122426845
61	0xbd927040	-0.07150316
62	0xbd725e96	-0.059172235
63	0x3dc9553b	0.098307095
64	0xbdb55dc1	-0.08855773
65	0xbdebf760	-0.115217924
66	0xbe7c326f	-0.24628614
67	0xbdfea568	-0.124338925
68	0x3dc9a418	0.098457515
69	0xbb74f2d9	-0.0037376194
70	0x3d868177	0.06567662
71	0x3def6e7c	0.11690995
72	0xbe0ff9cd	-0.14060135
73	0x3dda9b5b	0.10674163
74	0xbe5cfae9	-0.2158009
75	0xbd8fbe88	-0.07018763
76	0xbc5ff365	-0.01366887
77	0xbe1f61b9	-0.15564622
78	0xbd2dd546	-0.04243972
79	0xbe06a62e	-0.1314933
80	0x3cd64113	0.026154077
81	0x3d481189	0.048844848
82	0xbe5d5a69	-0.2161652
83	0xbe0067e9	-0.12539639
84	0x3ccb9e88	0.024855867
85	0xbd5d3ad0	-0.054011166
86	0xbe2c5adc	-0.16831535
87	0xbd75b29c	-0.05998479
88	0x3d49bff3	0.049255323
89	0xbdbc43a3	-0.09192588
90	0xbc94f72b	-0.018184265
91	0xbe5b3950	-0.21408582
92	0xbe20b62a	-0.1569449
93	0xbe24acd1	-0.16081549
94	0x3e12bfba	0.1433095
95	0x3e5cb536	0.21553501
96	0xbe0c48d7	-0.13699661
97	0xbe7fdb06	-0.24985895
98	0xbd5e7b25	-0.05431666
99	0xbe8599b3	-0.26093826
100	0x3d676ca0	0.056500077
101	0x3d34a94f	0.044106778
102	0xbe02462e	-0.12722084
103	0xbe7efdba	-0.24901477
104	0xbe603cbf	-0.21898173
105	0xbe3d9494	-0.1851371
106	0x3b2b49c9	0.0026136509
107	0xbe5b1263	-0.21393733
108	0x3cfb1006	0.030647289
109	0x3d975e74	0.073910624
110	0xbe1c1862	-0.15243676
111	0xbe1767c7	-0.14785682
112	0x3d7effa6	0.062255524
113	0xbe193de7	-0.1496502
114	0xbe38d67b	-0.18050568
115	0x3de2fe0e	0.11083613
116	0xbcedde13	-0.029036557
117	0x3d14fe4c	0.03637533
118	0xbdc98452	-0.09839691
119	0x3df604b2	0.12012614
120	0x3d82f323	0.06394031
121	0xbc5570de	-0.013027398
122	0x3d2fef51	0.04295284
123	0xbde911ae	-0.11380325
124	0xbe413afb	-0.18870156
125	0xbe525d25	-0.20543344
126	0xbc4565c2	-0.012048187
127	0x3b8a1ad4	0.004214624
128	0x3d94bc8a	0.072625235
129	0x3b9669fe	0.004590272
130	0x3c46cd26	0.012133872
131	0x3d9176bc	0.07102725
132	0xbd2b573d	-0.041831244
133	0xbe1674f7	-0.14693056
134	0x3d50bb27	0.050959732
135	0xbe6fe65f	-0.23427723
136	0x3d9df4bf	0.07712697
137	0xbdb0db0e	-0.08635531
138	0xbd3c907a	-0.04603622
139	0xbe2daa2c	-0.16959447
140	0xbe130a50	-0.14359403
141	0x3e3b573f	0.18295
142	0xbe6f5085	-0.2337056
143	0x3d2706a3	0.040777814
144	0x3d97ad24	0.07406071
145	0xbbb0018a	-0.005371277
146	0xbcd50329	-0.026002483
147	0x3e135c94	0.14390785
148	0xbd110779	-0.035407517
149	0x3dd1f5e2	0.102519765
150	0x3d9609ac	0.073260635
151	0xbc361e1b	-0.011115576
152	0xbdd547f1	-0.10414112
153	0xbd740568	-0.05957547
154	0x3e767a2d	0.24070044
155	0xbbf35f73	-0.00742715
156	0xbdf5a8eb	-0.11995109
157	0xbe5713a5	-0.21003588
158	0xbe1e15d4	-0.15438014
159	0xbe7b12c4	-0.24518877
160	0x3c5abfd6	0.013351401
161	0xbe0a99b0	-0.1353519
162	0x3cb6cde1	0.022314968
163	0xbde669e7	-0.11250668
164	0xbe6dca89	-0.23221792
165	0xbe186cb9	-0.14885224
166	0xbc12531d	-0.008930949
167	0xbdcd0d98	-0.100123584
168	0x3e1e5f60	0.1546607
169	0x3d0e3ad8	0.034724087
170	0x3d505c71	0.05086941
171	0xbe15ae17	-0.14617191
172	0x3db5adcd	0.088710405
173	0xbddd2836	-0.10798685
174	0x3e0d9cd0	0.1382935
175	0xbdda3360	-0.1065433
176	0x3dcb5605	0.09928516
177	0xbe0553df	-0.13020276
178	0xbd60a924	-0.054848805
179	0xbe711a65	-0.23545225
180	0xbdc50bce	-0.09621392
181	0x3bf2bc54	0.0074077044
182	0x3ddcff5b	0.10790893
183	0x3d2f3dcf	0.042783555
184	0x3b5bb3b9	0.003352387
185	0xbd705753	-0.05867703
186	0xbcad0f7f	-0.021125553
187	0xbe35a73d	-0.17739578
188	0x3dc6f11f	0.09713959
189	0xbe5319df	-0.20615338
190	0xbd52febd	-0.05151247
191	0xbe01eca1	-0.12687923
192	0x3d437eb3	0.04772825
193	0xbdcdb7b4	-0.10044804
194	0xbdb3d1b0	-0.08780229
195	0xbd3775ae	-0.044789962
196	0xbc7a1d4f	-0.015265777
197	0xbc0a566d	-0.008443457
198	0x3e17f6d9	0.14840259
199	0xbbd6334d	-0.0065368772
200	0x3b99af09	0.0046900553
201	0xbe34904a	-0.17633167
202	0xbd66e172	-0.056367345
203	0xbe2b83e4	-0.16749531
204	0xbdb71556	-0.089396164
205	0x3d950d3d	0.072779156
206	0xbdd5f909	-0.1044789
207	0x3dfb79ce	0.12279092
208	0xbdddf8b0	-0.10838449
209	0xbe196dc3	-0.14983277
210	0xbe858462	-0.26077563
211	0x3ddfe7a3	0.10932853
212	0x3d757e4d	0.059934903
213	0xbe3063f1	-0.17225625
214	0x3dab28fe	0.08357428
215	0xbcbcfed7	-0.023070736
216	0xbe2fea3a	-0.17179194
217	0xbde918bb	-0.1138167
218	0x3d74925d	0.059709895
219	0x3d636cd5	0.055523712
220	0xbe010b38	-0.12601936
221	0xbdf7b0f6	-0.120942995
222	0xbe30c991	-0.17264391
223	0xbd8968c0	-0.067094326
224	0xbe0d132b	-0.13776843
225	0xbd04d391	-0.032428328
226	0x3d80cd35	0.0628914
227	0xbda03085	-0.07821754
228	0x3e1875e4	0.14888722
229	0x3d039fbe	0.032134764
230	0xbdd6da3f	-0.10490846
231	0xbe4710e9	-0.19440044
232	0xbd20219b	-0.03909455
233	0xbc0aa5a1	-0.008462341
234	0xbe38bbd7	-0.18040405
235	0x3d85ed38	0.065393865
236	0xbd9619e9	-0.07329161
237	0xbcd408bb	-0.02588307
238	0x3c59ca10	0.013292804
239	0xbd47eeca	-0.04881171
240	0xbdaf5b48	-0.085623324
241	0x3df272e6	0.118383214
242	0xbe64830d	-0.22315617
243	0xbd143834	-0.036186412
244	0xbd81a320	-0.06329942
245	0x3e11c105	0.14233787
246	0xbe3857c2	-0.18002227
247	0xbe1a8e99	-0.15093459
248	0xbdf9a90a	-0.12190445
249	0x3b497423	0.003073939
250	0xbdfd6424	-0.12372616
251	0x3d25ddc6	0.040494703
252	0xbe388d49	-0.18022646
253	0x3c74f022	0.01494983
254	0xbd2f85cc	-0.042852208
255	0xbd3581e6	-0.044313334

fcn2.weight f4 [296, 592]
0	0x3c867978	0.016415343
1	0x3d8a8ac1	0.067647465
2	0x3d26ebc8	0.040752202
3	0x3c98cd7c	0.01865267
4	0xbe034cae	-0.1282222
5	0x3d0ff503	0.03514577
6	0xbeb0b886	-0.3451578
7	0x3da93c98	0.082635105
8	0xbdb1fedc	-0.08691189
9	0xbe3738b7	-0.17892729
10	0x3cf7a730	0.030231088
11	0xbe22b5f0	-0.15889716
12	0x3d72dd2e	0.059292965
13	0xbddff761	-0.10935856
14	0x3cd2c9fe	0.025731083
15	0x3c509374	0.012730468
16	0xbc9144e7	-0.01773305
17	0xbd004cbf	-0.03132319
18	0xbd028fbc	-0.031875357
19	0x3dabeba2	0.08394553
20	0x3e096d75	0.13420661
21	0xbddfff9d	-0.10937426
22	0xbe3980fc	-0.1811561
23	0x3cd78c45	0.026312003
24	0x3d97edaf	0.074183814
25	0x3bac5bee	0.0052599823
26	0xbd43a6d3	-0.047766518
27	0xbcf325ea	-0.029681165
28	0xbe4aff15	-0.19823869
29	0x3c65ea40	0.0140329
30	0x3e52c22b	0.20581882
31	0xbda6a60d	-0.081371404
32	0x3cb95bf1	0.022626849
33	0xbcb26694	-0.021777429
34	0x3dab59bb	0.08366724
35	0xbd9ce723	-0.07661273
36	0x3d5a251a	0.05325804
37	0x3e299c07	0.16563426
38	0x3dc5f4b6	0.096658155
39	0xbe648288	-0.22315419
40	0x3d251e6d	0.04031222
41	0xbb4a199c	-0.0030838018
42	0x3e48a4c1	0.19594099
43	0xbe1b5211	-0.15168025
44	0x3db23866	0.087021634
45	0xbd718fb9	-0.058974955
46	0x3e03b51d	0.12862058
47	0x3d8b216f	0.06793486
48	0x3b21d098	0.0024690982
49	0xbe6bdc19	-0.2303318
50	0xbed5b6e0	-0.41741085
51	0xbd7b2ac4	-0.06132008
52	0xbea6db60	-0.32589245
53	0x3daf899e	0.0857117
54	0xbd3d87e9	-0.046272192
55	0xbeafd89f	-0.34344956
56	0x3da2f671	0.07957161
57	0xbe3244ad	-0.1740901
58	0xbe0fafc9	-0.140319
59	0x3d8fd719	0.070234485
60	0xbcfb0b8d	-0.030645156
61	0xbc8b035b	-0.016969373
62	0x3e7c6f4c	0.24651831
63	0x3d89cc0b	0.06728371
64	0x3e0541b0	0.13013339
65	0x3d85db97	0.06536024
66	0xbe02088d	-0.12698574
67	0xbd73fced	-0.05956738
68	0xbdba2e33	-0.09090843
69	0xbe42d449	-0.19026293
70	0x3d80b0f2	0.0628375
71	0x3c56d75d	0.01311287
72	0xbe74bfd3	-0.239013
73	0x3bc30165	0.005951094
74	0xbdb1ece9	-0.08687765
75	0x3e7a9ba9	0.24473442
76	0xbda0433b	-0.07825323
77	0xbce1d43b	-0.02756702
78	0xbe4c5c15	-0.19957002
79	0xbd859b9e	-0.06523822
80	0x3e146489	0.14491476
81	0xbe006996	-0.12540278
82	0x3e3ecc31	0.1863258
83	0xbdf5f4cc	-0.12009582
84	0x3d9f2279	0.07770247
85	0xbd882dfc	-0.06649396
86	0x3db25a79	0.087086625
87	0xbde839ef	-0.11339175
88	0x3d3a306d	0.04545634
89	0x3d9ca4ac	0.07648596
90	0xbe4e30e4	-0.20135838
91	0x3d73aa6f	0.05948871
92	0x3d267078	0.040634602
93	0xbe52ec02	-0.20597842
94	0xbda66a62	-0.0812576
95	0xbd57f417	-0.052723017
96	0xbda14f24	-0.07876423
97	0xbc694d3a	-0.014239604
98	0xbe288f71	-0.16460969
99	0x3c5a737e	0.0133332
100	0x3c729d8f	0.014808073
101	0xbd7b0614	-0.061285093
102	0xbdd16cc8	-0.102258265
103	0x3e41d3a8	0.18928397
104	0xbdf27d59	-0.118403144
105	0xbd85c05d	-0.06530831
106	0xbda8ec60	-0.0824821
107	0xbd1a37dd	-0.03765093
108	0x3ddd9116	0.108186886
109	0x3e0c9e4a	0.13732257
110	0xbd61c2da	-0.055117466
111	0x3e002619	0.12514533
112	0x3e16c740	0.14724445
113	0x3d465072	0.048416562
114	0x3d99dcc4	0.07512811
115	0xbc936911	-0.017994436
116	0xbdaf1e0c	-0.08550653
117	0xbe606814	-0.21914703
118	0xbdd114c9	-0.102090426
119	0xbdd87893	-0.10569873
120	0x3db9b954	0.09068552
121	0x3dc820dd	0.09771893
122	0xbd00c24a	-0.03143529
123	0xbdc08175	-0.09399692
124	0x3d95f73e	0.07322548
125	0x3bc1a5e3	0.005909668
126	0x3c235faa	0.009971539
127	0xbd4a68b6	-0.049416266
128	0xbdf7ff29	-0.12109215
129	0x3dba4683	0.0909548
130	0x3c9c270c	0.019061588
131	0xbe2f31a4	-0.1710878
132	0xbd937904	-0.07200816
133	0xbca31024	-0.019905157
134	0x3e5d5b7c	0.2161693
135	0xbd634c5c	-0.055492744
136	0xbc3a0615	-0.011353989
137	0xbe0b1461	-0.13581993
138	0xbc2464a7	-0.010033763
139	0xbdf3a165	-0.11896018
140	0x3be1749f	0.0068803574
141	0x3dd0ee27	0.10201674
142	0xbdb19ee7	-0.08672886
143	0x3df8cc00	0.12148285
144	0x3c5b1f60	0.01337418
145	0x3d1880eb	0.03723232
146	0xbdecbd68	-0.11559564
147	0x3d7faca7	0.062420513
148	0x3d96a293	0.07355227
149	0xbd2bd52f	-0.041951355
150	0x3f1abce5	0.6044448
151	0x3e0e8a4e	0.13919947
152	0xbe2c7b00	-0.16843796
153	0xbe005561	-0.1253257
154	0xbcae83e9	-0.021303134
155	0xbcbd4c84	-0.023107775
156	0xbd13551f	-0.03596985
157	0x3d5038fe	0.050835602
158	0xbe0e24c2	-0.1388121
159	0x3d8ab584	0.067729026
160	0xbc84aacb	-0.016194722
161	0xbe3f0c19	-0.18656959
162	0xbe2c574c	-0.16830176
163	0xbdcf4df7	-0.101222925
164	0x3d43969c	0.047751054
165	0xbe878e99	-0.2647598
166	0x3d81f3d7	0.06345337
167	0xbdd553de	-0.10416387
168	0xbe49fb51	-0.19724776
169	0xbd803e95	-0.062619366
170	0xbc84f911	-0.016232045
171	0xbe65511e	-0.22394225
172	0xbdf75e51	-0.12078536
173	0x3e8a131b	0.269677
174	0xbe0c6fb0	-0.1371448
175	0xbb888ac3	-0.0041669323
176	0xbd15f0f8	-0.03660676
177	0x3c1cf2e1	0.009579391
178	0x3d745574	0.059651807
179	0xbdf0dc30	-0.117607474
180	0x3d37d9b8	0.044885367
181	0xbc4e59cb	-0.0125946505
182	0xbca4271c	-0.02003818
183	0x3c86a653	0.016436731
184	0xbd0018c3	-0.031273615
185	0x3de8df4b	0.11370715
186	0xbd9df563	-0.077128194
187	0xbd5b5b7d	-0.053554047
188	0x3e1ccef1	0.15313317
189	0x3dd687c3	0.10475113
190	0xbdc49e2f	-0.096004836
191	0xbd84bb82	-0.06481077
192	0x3dfca059	0.123352714
193	0xbe038b33	-0.12846069
194	0x3c54b063	0.012981507
195	0xbd0dd6d6	-0.03462871
196	0x3ca73b3e	0.020413991
197	0xbe898aa3	-0.26863584
198	0xbd66526f	-0.05623096
199	0x3e27b3d3	0.16377191
200	0xbcac90cb	-0.021065136
201	0xbe2163d2	-0.15760735
202	0x3cbfb174	0.023400046
203	0xbdb861d7	-0.090030365
204	0xbe272c11	-0.16325404
205	0x3b83494a	0.0040065395
206	0x3e635efa	0.222042
207	0x3dac8660	0.084240675
208	0x3d7bee3c	0.061506495
209	0xbe9f16e7	-0.3107216
210	0x3e4e1c48	0.20127976
211	0x3ec20e84	0.379017
212	0xbdb88f34	-0.09011689
213	0xbdb95d1b	-0.090509616
214	0xbd52d1b3	-0.051469516
215	0xbc9f8127	-0.019470764
216	0xbd24cf27	-0.04023662
217	0xbedb0220	-0.4277506
218	0x3d256e8e	0.040388636
219	0xbd928ec7	-0.07156139
220	0x3c9f07e8	0.01941295
221	0xbbcb73f4	-0.006208891
222	0x3d03f046	0.032211564
223	0x3d452533	0.04813118
224	0x3e1aaf6c	0.1510598
225	0x3d7c9144	0.061661974
226	0x3d830086	0.06396584
227	0x3e310a69	0.17289127
228	0xbdd87336	-0.1056885
229	0xbe8bd801	-0.27313235
230	0x3b8e9d51	0.0043522497
231	0xbe27a77d	-0.16372485
232	0x3d43681a	0.0477067
233	0x3e28ad7d	0.1647243
234	0x3ae97262	0.0017810578
235	0x3ce7a4fe	0.028276917
236	0xbd8d7f31	-0.069090255
237	0x3e0823bd	0.13294883
238	0xbd3bc89b	-0.04584561
239	0xbd383803	-0.044975292
240	0x3dfa2b43	0.12215283
241	0x3e57ff39	0.21093453
242	0xbe220662	-0.15822747
243	0xbd46849f	-0.04846632
244	0x3881231e	6.1577404e-05
245	0xbe5b1352	-0.21394089
246	0xbdbeaa1b	-0.09309789
247	0xbdb75f13	-0.08953681
248	0xbc9eac2a	-0.019369204
249	0xbb52bd0b	-0.0032156135
250	0x3e074e59	0.13213481
251	0xbe26ded6	-0.16295943
252	0xbd3b588d	-0.045738745
253	0xbdf7da8b	-0.12102231
254	0xbe0149e8	-0.12625849
255	0x3dfee26c	0.1244553

fcn2.bias f4 [296]
0	0x3d034a56	0.032053314
1	0xbd379e08	-0.044828445
2	0x3c872575	0.016497353
3	0xbba04189	-0.004890625
4	0xbd5dc221	-0.054140214
5	0xbd19d3b9	-0.03755543
6	0x3d41ed05	0.04734518
7	0xb825a707	-3.9494622e-05
8	0x3c6db015	0.014507313
9	0x3ee6a2ac	0.45045984
10	0xbc81797a	-0.015804995
11	0xbda1ed4b	-0.07906588
12	0xbd451338	-0.04811403
13	0x3c33b6c0	0.010968864
14	0xbb9e4d48	-0.00483099
15	0xbca7b94d	-0.0204741
16	0xbd74bb0d	-0.059748698
17	0xbd94ecbb	-0.07271715
18	0xbd5359d9	-0.051599357
19	0x3da7be9e	0.08190654
20	0x3cb6c4e4	0.022310682
21	0xb958f10a	-0.0002068916
22	0x3d0786ff	0.033087727
23	0x3c50dc90	0.012747899
24	0xbccc3018	-0.024925277
25	0x3e85a172	0.26099735
26	0xbcd85b25	-0.026410649
27	0x3c3de2a3	0.011589679
28	0xbd439976	-0.047753774
29	0x3c363578	0.011121146
30	0x3bc0dfff	0.0058860774
31	0xbd473ad1	-0.048640076
32	0xbd0f27a4	-0.034949914
33	0xbdbe9801	-0.09306336
34	0x3e3c9e24	0.18419701
35	0xbcd074fe	-0.025446411
36	0xbcbfd7e5	-0.023418376
37	0xbd97a5e4	-0.07404688
38	0xbd497ca5	-0.049191136
39	0xbd937596	-0.07200162
40	0x3c28fd2a	0.010314265
41	0xbc2331c8	-0.009960599
42	0x3d306dbc	0.0430734
43	0xbcc4293d	-0.023945445
44	0xbd1eb7fb	-0.038749676
45	0xbd4278d5	-0.047478516
46	0xbd98c9d9	-0.074603744
47	0xbdc8e206	-0.098087355
48	0x3c69f4b2	0.014279531
49	0x3aad2c02	0.0013211968
50	0x3c1609de	0.009157626
51	0xbc1d0d5f	-0.009585707
52	0xbd8e783b	-0.06956526
53	0xbb098b33	-0.002098751
54	0xbd005124	-0.03132738
55	0xbd77dc5e	-0.060512893
56	0xbd034656	-0.0320495
57	0xbc979158	-0.018501922
58	0xbd463adf	-0.048395988
59	0xbc6bb4e5	-0.01438639
60	0xbd1f19ec	-0.03884308
61	0xbd54e18b	-0.051972907
62	0xbc959111	-0.01825765
63	0xbd7f65af	-0.062352832
64	0xbd36d97a	-0.044640996
65	0xbc98a5f9	-0.01863383
66	0xbd0f87b2	-0.03504152
67	0x3d13fa7d	0.036127556
68	0xbcdb7ae9	-0.026792007
69	0xbb3f2b92	-0.0029170257
70	0xbb58478b	-0.0033001627
71	0x3cd0f3c8	0.025506869
72	0x3d0958cc	0.03353195
73	0xba870774	-0.0010301904
74	0xbd6b7108	-0.057480842
75	0xbc9360d8	-0.017990515
76	0xbcbe0d52	-0.023199711
77	0xbce173b2	-0.027520988
78	0x3c61174f	0.013738467
79	0xbd2727ea	-0.04080955
80	0xbd48405c	-0.048889503
81	0xbcb6bed7	-0.022307796
82	0xbc7eb58b	-0.015546213
83	0xbd8761d9	-0.0661046
84	0xbd76cfde	-0.06025683
85	0xbd5b5289	-0.05354551
86	0xbd65247a	-0.05594299
87	0xbd1ef1b4	-0.038804725
88	0x3da7805e	0.08178781
89	0x3bfaa2ab	0.007648786
90	0x3e1cad96	0.15300593
91	0xbbb3c870	-0.0054865405
92	0x3d5fe392	0.054660387
93	0xbc422d63	-0.011851641
94	0xbc343f93	-0.011001485
95	0xbdc172f9	-0.094457574
96	0x3cde46cb	0.027133366
97	0x3c50c7a1	0.012742908
98	0xbc6b32a1	-0.014355333
99	0xbcd91f4e	-0.026504185
100	0xbddfb3e7	-0.109229855
101	0x3c007b6a	0.007841924
102	0xbc7d6545	-0.015466039
103	0xbd835bcb	-0.064139925
104	0xbc9e2ef7	-0.019309504
105	0xbe0a638f	-0.13514541
106	0xbd625b78	-0.055263013
107	0xbd0db4f4	-0.0345964
108	0xbd07cc53	-0.033153843
109	0x3d1a7c94	0.037716463
110	0xbc2b31f9	-0.010448926
111	0x3c41cf92	0.011829274
112	0x3f0afe2e	0.542941
113	0xbd2e7ed0	-0.042601407
114	0x3d540d27	0.051770356
115	0x3e30a546	0.17250547
116	0xbcf30b23	-0.029668396
117	0x3d658d56	0.05604299
118	0xbd6f1164	-0.058366194
119	0xbc233e20	-0.009963542
120	0xbd270a28	-0.04078117
121	0xbc8209fc	-0.015873902
122	0x3d407c52	0.04699356
123	0x3b90aa36	0.004414822
124	0xbcba31f6	-0.022728901
125	0x3c177111	0.009243266
126	0xbc4d3e2d	-0.012527031
127	0xbd9f3671	-0.07774056
128	0xbd6ae4bf	-0.057347056
129	0xbc52f400	-0.012875557
130	0xbc4a9afd	-0.012366054
131	0xbaa19cc2	-0.0012330043
132	0xbdf43dd7	-0.119258575
133	0x3d174d1b	0.036938768
134	0xbd3ab684	-0.045584217
135	0x3c06dd3d	0.008231458
136	0xbd7af9cd	-0.061273385
137	0xbb769b7d	-0.00376293
138	0xbd8ddb4d	-0.06926594
139	0xbcb725a4	-0.022356816
140	0xbd848a6a	-0.06471713
141	0xbd806cda	-0.06270762
142	0xbc0cf568	-0.008603431
143	0xbd094fa5	-0.03352322
144	0xbd283894	-0.041069582
145	0x3e28e092	0.16491917
146	0x3d8f540d	0.06998453
147	0xbad391e4	-0.0016141501
148	0xbd5897de	-0.052879207
149	0xbd203197	-0.039109793
150	0xbd80f45f	-0.0629661
151	0x3cc9dac5	0.02464045
152	0x3cbc3f8b	0.022979518
153	0xbc8662b8	-0.016404495
154	0xbdb2539d	-0.08707354
155	0xbd466c20	-0.04844296
156	0xbcf60f60	-0.030036628
157	0xbc2d3e60	-0.010573953
158	0xbcb2b880	-0.021816492
159	0xbd87b0b2	-0.06625499
160	0xbd7f97d1	-0.062400643
161	0xbd7eba34	-0.062189296
162	0xbc393a19	-0.0113053555
163	0xbd4c0a0d	-0.049814273
164	0xbd587a74	-0.052851155
165	0xbcef8145	-0.029236445
166	0xbb4fc0d2	-0.0031700623
167	0x3d791bbc	0.060817465
168	0x3cc73f78	0.024322256
169	0xbd264a56	-0.040598236
170	0xbc809992	-0.015698228
171	0xbd1518cd	-0.036400605
172	0xbc44e46c	-0.012017351
173	0xbce8bf3e	-0.028411504
174	0xbdd99040	-0.10623217
175	0xbbe7934a	-0.007067119
176	0x3ca124a6	0.019670796
177	0xbd7419c2	-0.059594877
178	0xbd514e0d	-0.051099826
179	0xbd6693ef	-0.056293424
180	0xbda4c814	-0.080459744
181	0xbb056278	-0.0020352881
182	0xbd6c4fef	-0.057693418
183	0x3d6bb00a	0.05754093
184	0x3bea1cdc	0.0071445536
185	0xbcffee21	-0.031241478
186	0x3cc4c1bf	0.024018167
187	0xbc1b5354	-0.009480316
188	0xbd3efa89	-0.046625648
189	0xbd22457a	-0.03961704
190	0xbcb7ae51	-0.022421988
191	0xbdd7ea33	-0.10542717
192	0xbc121cdc	-0.008918013
193	0x3ac9f093	0.001540678
194	0x3ea6ae14	0.32554686
195	0xbd397496	-0.0452772
196	0x3d70455a	0.05865989
197	0xbc89553d	-0.016764278
198	0x3d11dc19	0.035610292
199	0xbd4d0940	-0.05005765
200	0xbcc4f776	-0.02404378
201	0xbcb7e8c8	-0.022449866
202	0xbd680a35	-0.05665036
203	0xbd8b585b	-0.06803962
204	0xbc4b2ff9	-0.012401574
205	0xbd781957	-0.06057104
206	0x3c32df74	0.010917533
207	0x3b854bbd	0.0040678666
208	0xbc8b876f	-0.017032353
209	0xba4bec79	-0.00077790726
210	0x3be36844	0.0069399197
211	0xbdd86949	-0.105669565
212	0xbcc83fd5	-0.0244445
213	0xbbc5ccab	-0.006036361
214	0xbe0d11cd	-0.13776322
215	0xba06f500	-0.0005148202
216	0xbd54cda3	-0.051953923
217	0x3c7a24a8	0.015267529
218	0x3dce2890	0.100663304
219	0xbc80d76f	-0.015727727
220	0xbd618258	-0.055055946
221	0x3c348a25	0.011019264
222	0x3e058e64	0.13042599
223	0xbcd75579	-0.026285874
224	0xbca87c1f	-0.020566998
225	0x3c63244b	0.013863633
226	0xbc82b5ee	-0.015955891
227	0xbd672a60	-0.056436896
228	0x3c3166a9	0.010827699
229	0x3d0eada0	0.03483355
230	0xbd6305c4	-0.05542542
231	0xbcaadd8a	-0.020857591
232	0xbc7f174a	-0.015569517
233	0xbe16fd3a	-0.14745036
234	0xbd42bddc	-0.047544345
235	0xbd11d144	-0.035599962
236	0xbdadf9f5	-0.08494941
237	0x3db29ba0	0.08721089
238	0x3ccbdc9c	0.024885468
239	0xbd898833	-0.06715431
240	0xbd540811	-0.051765505
241	0x3d33cbfc	0.043895707
242	0xbd982d3f	-0.07430505
243	0xbce85027	-0.028358532
244	0x3dd80dc4	0.105495006
245	0xbcaf04b3	-0.021364545
246	0x3d4443e9	0.047916327
247	0xbd84bc58	-0.06481236
248	0xbcfc3c8f	-0.030790595
249	0xbcee9055	-0.029121557
250	0xbd84efbe	-0.0649104
251	0xbc9411b3	-0.018074846
252	0xbd8bc9d9	-0.06825609
253	0xbc74d8ed	-0.014944297
254	0xbb124854	-0.0022320943
255	0xbe073da5	-0.1320711

fcn3.weight f4 [4, 296]
0	0x3e6611a8	0.22467673
1	0x3d4031c5	0.046922464
2	0x3d751be8	0.059841067
3	0x3bd538a9	0.0065069986
4	0xbcf4306c	-0.029808246
5	0xbe8fdff3	-0.28100547
6	0x3d0ae977	0.033914056
7	0x3cfdec74	0.030996539
8	0xbe0e36cb	-0.1388809
9	0x3d9d3bee	0.07677446
10	0x3da04ba1	0.07826925
11	0xbacf421a	-0.0015812546
12	0x3d09c962	0.03363932
13	0x3e1a49bd	0.15067191
14	0x3b35b6ad	0.0027727291
15	0xbd77561a	-0.060384847
16	0xbc68b4b0	-0.0142032355
17	0xbdd490bc	-0.103791684
18	0x3d2b609e	0.04184019
19	0x3ce2fe79	0.027709233
20	0xbcfbed3e	-0.030752774
21	0x3be966bf	0.007122844
22	0xbeb47f39	-0.35253313
23	0xbbd38cd5	-0.0064559975
24	0x3d4c158e	0.049825244
25	0x3ce44f33	0.027869796
26	0x3cb69f12	0.022292648
27	0xbd443927	-0.047906067
28	0x3db0d387	0.08634096
29	0x3d82172f	0.06352078
30	0x3d8d7b2b	0.06908258
31	0x3ccbdece	0.024886515
32	0xbe12e6f9	-0.14345922
33	0xbe219e36	-0.15783009
34	0x3d0cc9cf	0.034372147
35	0x3c030d4d	0.007998777
36	0x3d8c8b8f	0.06862556
37	0x3dbec408	0.09314734
38	0x3bb5b17d	0.00554484
39	0xbe16dd00	-0.14732742
40	0x3c291835	0.010320713
41	0xbcb355bb	-0.021891465
42	0x3dadefec	0.08493027
43	0xbc94175f	-0.01807755
44	0xbd8ea8e4	-0.06965807
45	0x3d0fa1d9	0.03506646
46	0xbc8c9016	-0.01715855
47	0xbdcf1b20	-0.101125956
48	0xbcf02996	-0.029316705
49	0xbc874530	-0.016512483
50	0x3e667fba	0.22509661
51	0xba641b01	-0.00087015337
52	0xbe0fb5b0	-0.14034152
53	0x3d97efdc	0.074187964
54	0xbbec9074	-0.0072193686
55	0x3da7d015	0.081939854
56	0xbcda0e19	-0.02661805
57	0x3d534073	0.051575135
58	0x3dc683ab	0.096930824
59	0xbc171917	-0.0092222905
60	0x3ce7ae3c	0.028281324
61	0x3bdda1f4	0.006763691
62	0xbc010a4f	-0.007875993
63	0xbce32554	-0.02772776
64	0xbc5ae333	-0.013359833
65	0xbc2cf577	-0.01055657
66	0xbc856e1f	-0.016287861
67	0x3de81158	0.11331433
68	0x3b4a22ce	0.00308435
69	0x3d47077a	0.048591115
70	0xbc499606	-0.012303835
71	0x3cbff8bc	0.023434035
72	0x3cbec05d	0.023285085
73	0xbdee3377	-0.1163091
74	0xbcbbead7	-0.022939129
75	0xbb8f7db9	-0.004379001
76	0x3d94d19e	0.07266544
77	0x3ce1e745	0.027576098
78	0xba2dd9da	-0.00066318887
79	0xbd0bc14b	-0.034119885
80	0x3c839731	0.016063305
81	0xbd0dec23	-0.034649026
82	0xbd7b62d6	-0.061373554
83	0xbd2a29f9	-0.041543934
84	0x3cbb7c18	0.022886321
85	0x3bce095e	0.0062877377
86	0x3d2b2620	0.041784406
87	0xbc354382	-0.011063458
88	0x3e2dbb03	0.1696587
89	0x3b1b361b	0.0023683372
90	0x3dd9d2ed	0.10635934
91	0x3cf49d6a	0.029860217
92	0x3d16f2d7	0.036852684
93	0x3cff3501	0.031153204
94	0xbd1ca576	-0.038243733
95	0x3dc099bf	0.09404325
96	0x3ce89f3a	0.028396238
97	0xbf076f0c	-0.5290382
98	0xbad244d1	-0.0016042237
99	0xbd209729	-0.039206658
100	0x3dd2c76a	0.102919415
101	0xbdef4dc3	-0.11684754
102	0x3c825abf	0.015912412
103	0x3d5f1aba	0.054468848
104	0xbd2c40cf	-0.042053994
105	0x3cb1f089	0.021721141
106	0xbbc3cc40	-0.005975276
107	0xbd39d3b2	-0.045367904
108	0xbcd90a71	-0.026494237
109	0x3db7a4b3	0.08966961
110	0xbbd5bb18	-0.0065225475
111	0x3cca804d	0.024719382
112	0x3dfbbf74	0.12292376
113	0xbccef83d	-0.025264854
114	0xbd72d55d	-0.05928551
115	0x3d4d1e97	0.050078
116	0x3c5bc6fc	0.013414141
117	0x3e082a37	0.13297354
118	0xbc982b59	-0.018575357
119	0x3d2af251	0.041734997
120	0xbc185b47	-0.009299106
121	0x3d62c3b6	0.055362426
122	0x3d3e7d26	0.04650607
123	0x3c8eb52b	0.017420372
124	0xbd03f361	-0.032214526
125	0xba1c7121	-0.0005967785
126	0xbc0cf8a0	-0.008604199
127	0x3cf82490	0.030290872
128	0xbc3c9a9c	-0.011511471
129	0x3c416153	0.011802989
130	0xbc878461	-0.016542615
131	0x3b28691d	0.0025697418
132	0x3c8984a9	0.01678689
133	0xbdc8c068	-0.098023236
134	0xbcad3fba	-0.021148551
135	0xbbf88372	-0.007584029
136	0x3ce1b8f4	0.027554013
137	0x3c7c7ed3	0.015411097
138	0xbd763192	-0.060105868
139	0xbc39f1e4	-0.011349175
140	0x3e022ea9	0.12713112
141	0x3d066052	0.032806702
142	0x3d1cdf22	0.038298734
143	0x3c0822b1	0.008309052
144	0x3e528531	0.20558621
145	0x3d1b6915	0.03794201
146	0x3e3535ac	0.17696255
147	0xbd15cec7	-0.03657415
148	0xbcfaddc7	-0.03062333
149	0xbcc6becd	-0.024260903
150	0x3b5cdf3d	0.0033702396
151	0x3d039784	0.03212692
152	0x3da57f4b	0.0808092
153	0x3d0776a5	0.033072133
154	0x3db17ef0	0.086667895
155	0xbcbfff1d	-0.023437077
156	0x3c85cb0c	0.016332172
157	0x3c5ce919	0.013483309
158	0x3ccdc23f	0.025117038
159	0xbd7a7fab	-0.06115691
160	0x3d964fd2	0.07339443
161	0x3c35ba33	0.011091757
162	0xbd41066b	-0.04712526
163	0xbd11b2c5	-0.03557088
164	0xbd2c4cee	-0.042065553
165	0x3d422713	0.047400545
166	0x3d46eb7a	0.04856441
167	0xbc40d1e5	-0.011768793
168	0xbd44edf3	-0.04807849
169	0x3c930755	0.017947832
170	0xbe2f5b05	-0.17124565
171	0x3bcfe41e	0.0063443324
172	0xbe492b47	-0.19645415
173	0xbd32c9cf	-0.04364949
174	0xbd199fb6	-0.037505828
175	0x3bd468e3	0.00648223
176	0xbd9d070e	-0.07667361
177	0xbbcffca8	-0.0063472576
178	0xbb4f8e78	-0.0031670611
179	0x3d4143ad	0.04718368
180	0xbc9367fb	-0.017993918
181	0xbd00bfff	-0.0314331
182	0x3cf19646	0.029490601
183	0x3deecfd4	0.11660734
184	0x3d92efb4	0.07174626
185	0xbd271917	-0.040795412
186	0x3daa12a6	0.08304338
187	0x3c97b41e	0.018518504
188	0xbc524415	-0.012833615
189	0x3ba8243a	0.0051312717
190	0xbc830419	-0.015993165
191	0x3d94c445	0.07263998
192	0xbd15667a	-0.036474682
193	0xbd5dbec8	-0.05413702
194	0x3ce94d69	0.028479295
195	0x3d685d88	0.056729823
196	0x3c0d88bb	0.008638556
197	0x3d001175	0.03126665
198	0xbec5c0f7	-0.38623783
199	0x3d07c9de	0.0331515
200	0xbe887098	-0.26648402
201	0x3d71dc41	0.05904794
202	0x3d9e8ece	0.077420816
203	0x3c798e6f	0.015231713
204	0x3d276d23	0.040875565
205	0xbc0ad0e4	-0.008472655
206	0xbe6b2249	-0.22962297
207	0x3c0df4f7	0.008664361
208	0xbc3ee8ab	-0.011652152
209	0x3ae438d1	0.0017411952
210	0xbc8fc456	-0.017549675
211	0xbc5eaee2	-0.0135915
212	0xbc9f990c	-0.019482158
213	0x3d38501a	0.044998266
214	0xbd7242e0	-0.05914581
215	0x3e77b137	0.24188696
216	0x3c74b839	0.0149365
217	0xbbe58a11	-0.007004984
218	0x3e0e9178	0.1392268
219	0x3cc021ca	0.023453612
220	0xbcde2b26	-0.027120184
221	0x3cebcf4a	0.028785367
222	0x3ce3088c	0.027714036
223	0xbc8ed9a2	-0.01743776
224	0xbcfd6bb6	-0.03093515
225	0x3c9c1fc4	0.019058116
226	0xbb64058d	-0.0034793348
227	0x3d24e30e	0.0402556
228	0xbc8e1234	-0.017342664
229	0xbddeaea3	-0.10873153
230	0x3dc11c9c	0.09429285
231	0xba03c02e	-0.00050258904
232	0xbc8efc66	-0.017454337
233	0xbdb92f40	-0.09042215
234	0xbd2fb896	-0.042900644
235	0xbc27475a	-0.010209883
236	0x3af13dfe	0.0018405316
237	0x3dec20b4	0.11529675
238	0x3d356084	0.044281498
239	0xbe133d17	-0.14378773
240	0x3c9a32d9	0.018823074
241	0xbeb564e6	-0.35428542
242	0x3cc64cae	0.024206486
243	0x3cf65868	0.030071452
244	0x3d916841	0.07099963
245	0xbcf8f0e8	-0.03038831
246	0x3db6ab45	0.08919386
247	0x3d3f415f	0.046693202
248	0xbc844955	-0.016148249
249	0xbc5f7a44	-0.01363999
250	0x3c29a6ba	0.010354692
251	0xbc1f0faf	-0.009708329
252	0x3cdfc9e0	0.027317941
253	0xbe138911	-0.14407755
254	0x3d662af5	0.05619331
255	0xbd75ad1b	-0.05997954

fcn3.bias f4 [4]
0	0x3ec374bc	0.38175
1	0x3ea8535a	0.32876092
2	0x3eb04b95	0.34432665
3	0x3eb74c4b	0.35800394
